models/surrogate_model.pt (torch, 287055 bytes, 12 tensors)

conc_conv.0.weight f4 [128, 9, 3]
00000000: c223 20be 78ca 873d 865d 123d 2f50 08be
00000010: 9d88 da3d ae68 2cbe 1596 323e b73a 173e
00000020: 9b9a 01bd ea6c d2bc 7fbf b9bd 2147 1f3e
00000030: 70dc 43be f721 ccbb 5ba1 40be 4ec3 1d3e
00000040: 3b2b 26be 4eae 95bd 1ab0 bc3b 0ada 543d
00000050: 04ec 2d3e 3fcf ad39 50d8 ab3d 1ed5 dbbd
00000060: 5013 23be d7ec 023e 0280 283d f0bf 63be
00000070: 8eca 22be c058 f8bd 03f8 afbd acf9 33bd
00000080: 5a43 d13d de2a e1bd 82e2 dfbd 90ef 04be
00000090: 23a5 4a3e 0868 f7bd 5b90 4a3d dd36 2fbd
000000a0: 50a2 e83d 9e16 a03d af7b ba3c af7b 37be
000000b0: fb97 2ebe d977 033e 856e 8c3b 1bd7 c03d
000000c0: ce28 51b9 9897 983b 27c0 953d c9a2 52bd
000000d0: 7e48 bbbd e053 033e 65dd 813d ce91 df3d
000000e0: 9693 0bbe 619e 4ebe a6f0 62be 9b88 2f3d
000000f0: 4956 f2bd 0f5d 293e 7f24 2f3e 9aff c33d
00000100: f33f 963e 8523 b83d ac27 3bbe 9bac f03d
00000110: 51d2 0e3e 36a5 3cbd c97f 0b3e abb7 2b3e
00000120: daea 13bd 45f6 46be 09f7 5dbe 30d7 c63d
00000130: 2532 1c3e a960 41be a320 d3bd 84e2 03be
00000140: 609a 283e ae14 72bd 0804 453e 7061 e1bb
00000150: 76d6 4a3e c573 c53c 2f7f 2bbe c9da 4dbd
00000160: 9f2b 8cbd d095 5b3c efba 373e 985e 3ebe
00000170: 9ccd 273d f737 1ebe 8687 193e 434d febd
00000180: bc89 5d3d 32a5 5fb9 c789 12be 69da 343e
00000190: ac19 babd cbd8 443e 701d 2fbd d380 de3d
000001a0: 3c6f bc3c 4790 9dbd d99a 063e b021 d3bd
000001b0: d9c8 5fbe 7446 0a3a 4875 3ebd 3aab 38be
000001c0: 50d5 2c3e e4d6 7bbd 4f38 8ebc 2553 7a3d
000001d0: 2a01 aebd c273 313d 5e0d 253e 70b7 edbd
000001e0: f581 ea3d 427e bcbb 6060 283e 3b5d 62be
000001f0: 6e86 0f3d d730 23be 8655 a6bd 9eaf fdbd
00000200: 0845 d83c 66d6 553b 409b 1fbe 5f3c 1ebd
00000210: f2e7 e3bd 9110 0b3e 2834 c33c 6b0a b5be
00000220: b183 473d 6e13 343e 3419 983d d7a4 4aba
00000230: 170e 3cbe fc5f 8c3d 395d dabd 5b64 a83d
00000240: c123 d3bd 1e99 cebd b53c 153e 01db 8fbd
00000250: ea55 10be 323a 443e 78ad 143e 6c7a 27be
00000260: 5628 963d 76d5 903c d9bf 633d 9139 04be
00000270: b25f 61bc 0120 c03c ae4b a1bc 1716 a5bc
00000280: 5aca b63d 4d42 94bd a72a 2f3e 0ad2 ddbd
00000290: ac1f a73d 4c71 bc3d 0e3f 1b3e fb19 9ebd
000002a0: 9fe7 973d 2826 2fbe 4d9e 813d 4ed1 7c3e
000002b0: e744 5cbe 41a0 c63d 4d58 a13d 82b6 31be
000002c0: 6ad2 063e 2d7b fb3c aed6 33be fc25 e5bd
000002d0: 546a 303e 7851 e93d 48c7 0e3e f1e8 59bd
000002e0: 07eb 4a3d 9fac 15bd 1098 b9bd 1d16 113b
000002f0: 2362 a03d 1420 14bd aace 4f3e 8896 6a3d
00000300: 58a6 d7bd 308e a63d 23b4 e5bd 4f53 96bd
00000310: 1a8c 32be c024 4d3d 2695 e9bd dcf9 573c
00000320: 1d91 acbd e650 053d 658e c33d 60e9 06bd
00000330: fa20 1d3e adf0 90bd 9d84 f13d e3b9 6d3d
00000340: 4474 a73c e111 18be 2576 debd de29 433e
00000350: 0623 5fbd 2617 563d 44f1 543d acd6 ecbd
00000360: 70a8 203d 93e5 443e 3b3a 27bd fa73 67be
00000370: c462 05be b54a 803c 75d2 11bc 5003 b93d
00000380: 2655 9b3d 07b6 b8bd 8979 4d3d 6f62 3abe
00000390: 4b9d 78bc b42f 18be bcea 043d 85cc 5c3e
000003a0: 7089 1d3e af0c a93d 0e00 74bd d3f4 a4be
000003b0: 89c1 7dbd 5064 ff3d 01c9 88be 45bd bebc
000003c0: 3e73 cd3d fa8e bcbd f3ed 563d 44d2 6a3d
000003d0: 4d7a b2bc c8c7 fdbc 57b9 503d 66c9 71bd
000003e0: 4a0d bdbd 532c 063e 3004 313e 5d60 41be
000003f0: 715c 063c 74b8 083e 22b9 053e 4cc0 293e
-0.1563864 0.06630415 0.035733722 -0.13311838 0.10670588 -0.16836807 0.17440064 0.14768492
-0.031641584 -0.0256867 -0.09069728 0.15554477 -0.19127059 -0.006229635 -0.18811552 0.15406534
-0.16227429 -0.073086366 0.0057582976 0.05196575 0.16984564 0.00033151542 0.08390868 -0.10734008
-0.15925336 0.1278566 0.041137703 -0.22241187 -0.15897581 -0.12126303 -0.08592226 -0.043939278
0.102179244 -0.109945044 -0.10931875 -0.12982011 0.19789557 -0.12080389 0.049454074 -0.04277693
0.11359084 0.07816814 0.022764055 -0.17918275 -0.17050163 0.12838687 0.004285636 0.09416028
-0.00019946994 0.0046567433 0.07312041 -0.051424775 -0.09144686 0.12824965 0.06341056 0.10916482
-0.13630518 -0.20177604 -0.22162113 0.042854887 -0.11832864 0.16539405 0.17103766 0.095702365
0.29345664 0.0899115 -0.18276852 0.11751672 0.13947417 -0.046055995 0.13622965 0.16769283
-0.036112644 -0.19429882 -0.21676268 0.097090125 0.15253504 -0.18884529 -0.10308959 -0.12879378
0.1646514 -0.059101753 0.19239819 -0.0068780705 0.19808373 0.024103055 -0.16747735 -0.050257478
-0.068442576 0.013402417 0.17942403 -0.18590772 0.04096757 -0.15451036 0.14993104 -0.1241708
0.05408643 -0.00021328477 -0.1431037 0.17661442 -0.09086928 0.19223325 -0.042752683 0.10864415
0.02300226 -0.07693534 0.13145007 -0.1030916 -0.21853961 0.00052747806 -0.046498567 -0.18034068
0.16878247 -0.061484233 -0.017360834 0.06111445 -0.08496316 0.043323286 0.1611838 -0.116072536
0.114505686 -0.005752356 0.16443014 -0.22105877 0.03504031 -0.159366 -0.08121781 -0.12387012
0.026400104 0.0032629012 -0.15586567 -0.038631793 -0.111282244 0.13580538 0.023828581 -0.3535951
0.048709575 0.17585537 0.07426682 -0.00077302515 -0.1836475 0.06854245 -0.10662312 0.08222266
-0.10309554 -0.100877985 0.14573939 -0.070241936 -0.14095274 0.19162825 0.14519298 -0.16355294
0.07331912 0.017679911 0.055602882 -0.12912585 -0.013755726 0.02345276 -0.019689407 -0.020152135
0.08925314 -0.07239208 0.17106114 -0.108310774 0.08160338 0.09201297 0.15160772 -0.07719799
0.07417225 -0.17104399 0.063290216 0.24689218 -0.21510659 0.09698535 0.0787817 -0.17354777
0.13166204 0.030698383 -0.17562363 -0.111888856 0.17228061 0.11392492 0.13943207 -0.053200666
0.049540546 -0.036541577 -0.09062207 0.0022138425 0.07831218 -0.036163405 0.2029368 0.057272464
-0.105297744 0.08132589 -0.11215999 -0.073401086 -0.17436257 0.050083876 -0.11405401 0.01318213
-0.08426116 0.032547854 0.09548644 -0.032937407 0.15344611 -0.07077155 0.11792872 0.058038604
0.020441182 -0.1485057 -0.10862378 0.1905894 -0.05447676 0.05226817 0.0519879 -0.11564383
0.039223135 0.192282 -0.040827017 -0.22602835 -0.13025957 0.015660623 -0.0089002745 0.09033835
0.075846 -0.09019094 0.050164733 -0.18201612 -0.01517422 -0.14861947 0.032450423 0.21562393
0.1538446 0.08254372 -0.059570365 -0.32218036 -0.061952148 0.12470305 -0.26715854 -0.02328361
0.10031746 -0.09206958 0.05247302 0.05732943 -0.021786833 -0.030979052 0.050958004 -0.05902996
-0.0923105 0.13102846 0.17286754 -0.18884416 0.008200751 0.13351613 0.13058904 0.16577262

conc_conv.0.bias f4 [128]
00000000: a8e8 d0bd 61b6 b6bd fdf6 023e 9436 043d
00000010: de1e d73d c2ab 94bb bc85 2d3d 24b2 4a3d
00000020: 78b0 10be bf30 793d 19c3 1fbd 2a21 0fbe
00000030: c941 6d3d a477 f5bd 93bf 19be eb52 ccbd
00000040: 023e 14be 8412 40be be40 01be aac0 debd
00000050: 7241 813d 90be 02be b1b1 4dbc a17c 10bd
00000060: 86d5 95bd 0b3f 1f3e a5be 3cbd 3259 88bd
00000070: e530 4d3d 3260 95bd dcd6 aabc d442 003e
00000080: 92f5 793b d5c9 16be 747b 00be ee05 263e
00000090: 7294 4a3c b012 993d 7286 62be 6bfa 0abe
000000a0: 5ab3 ac3c 130c f3bd 1771 233e 2637 103d
000000b0: 2f2a d43d 38a9 a63d 4d22 333e 24fe 21be
000000c0: 8d98 89bd 4873 3c3e 097c 333e 10ea 0e3e
000000d0: 0c65 8b3d 4689 21bd 8b3e f9bd 92d7 34be
000000e0: cc64 b03d 3bff fdbd a43b bb3d 50b2 3dbe
000000f0: 8c25 d7bd 3678 793d 8fa6 c63c 3cbe 58bd
00000100: cf91 5a3d 691f 51be 2a53 9ebc e858 2cbe
00000110: 2266 a03b b92a d63d ac1b 313e 81b7 d83d
00000120: b27f 483d b783 6c3d 26fb f43d 3408 8dbd
00000130: 7081 b3bd 3d55 d73d e1b2 d53d 8ad2 82bd
00000140: 960b abbc 5e0d 693d d5bb 0e3e d62f a8bd
00000150: 459c c5bd 5513 1bbe a0eb 22be a71b db3d
00000160: 34b5 f63a deab 44be 4970 963d a894 22be
00000170: 2d23 28be c3c9 eb3d a98a 51be 0654 a63d
00000180: 0cab 3ebd febb bc3d a672 a4be caca 51be
00000190: e9cd 0fbe 8588 afbd f00b 0cbe b38a 0cbe
000001a0: 6f33 423e 6e41 2d3d 5dd8 06be e835 0fbe
000001b0: 90f8 63be fd87 cd3b ebae e1bd c6e6 733e
000001c0: 5dd7 843d 13f6 ca3d 2afb 95bd b530 4cbe
000001d0: 655d 43be bbe4 e4bd 71ca bcbc fa1c 013e
000001e0: 8aa3 b7bd 99d1 4bbe 2a8e aebb 9226 6f3d
000001f0: 1bb6 37be 6c86 cdbc 80e5 14bd f506 083e
-0.10200626 -0.08921505 0.12789531 0.032278612 0.10503934 -0.0045370767 0.042363867 0.049486294
-0.14129817 0.060837504 -0.03900442 -0.13977495 0.057924066 -0.1198571 -0.15014486 -0.09976753
-0.14476779 -0.18757063 -0.12622353 -0.108765915 0.06311311 -0.12768006 -0.012554572 -0.035275105
-0.07316117 0.15551393 -0.04608025 -0.06657638 0.050095458 -0.072937384 -0.020854406 0.12525493
0.0038140756 -0.1472543 -0.12547094 0.162132 0.012364494 0.074742675 -0.221216 -0.1357209
0.021081615 -0.11867537 0.15961109 0.035208844 0.103596084 0.08137745 0.17493553 -0.15819603
-0.0671855 0.18403351 0.17527784 0.13956475 0.068063825 -0.039437555 -0.12170132 -0.17660359
0.086129755 -0.12402197 0.09142235 -0.18525052 -0.105052084 0.060905658 0.024249343 -0.052915797
0.05336171 -0.20422138 -0.019326765 -0.1683079 0.0048949877 0.104573674 0.17295712 0.105818756
0.048949905 0.0577428 0.11961965 -0.0688633 -0.087649226 0.10514305 0.10434509 -0.063878134
-0.020879548 0.056897514 0.1393884 -0.08212249 -0.09648947 -0.15144093 -0.15910196 0.10698634
0.0018822313 -0.19206187 0.073456354 -0.1587702 -0.16419668 0.11513092 -0.20463051 0.08121495
-0.04654984 0.09215544 -0.3211872 -0.20487514 -0.14043392 -0.08570961 -0.13676429 -0.13724785
0.18964933 0.042298727 -0.13168474 -0.13985407 -0.22262788 0.0062723146 -0.11019691 0.23818502
0.0648639 0.09910216 -0.07323296 -0.19940455 -0.19078596 -0.111764394 -0.02304575 0.1260871
-0.089667395 -0.19904174 -0.005327006 0.058386393 -0.17940561 -0.025088511 -0.03635168 0.13283904

conc_conv.3.weight f4 [128, 128, 3]
00000000: 7c6b 993d e378 ecbc cc5b cdbb 4188 c7bc
00000010: 05c9 61bd a6f2 86bd 5678 eabd ec0d f13c
00000020: fe60 ca3c 552c 10bd 70fb 01bd 93e2 32bd
00000030: abff eb3c b7c5 bd3c 0bbd 96bb 00ac 843c
00000040: 6257 41bd aa38 21bc ecb2 1dbd b240 98bc
00000050: 35b6 763d 9d89 213d 27c7 0f3c 1f35 6fbc
00000060: 5369 f1bd 33b2 8cbd 58cc a6bc ff71 81bc
00000070: f6fe 03bd 177c 253d d521 013d 30c4 3a3d
00000080: 573e e8bc 520f 1abe 62ae bcbc f9b4 1a3d
00000090: 72c0 383c 84f2 a2bc e284 29bd ba31 e0bc
000000a0: e136 503c 1fcb 7ebc 7091 aa3c af97 26bd
000000b0: e17c 723d 65bd c6bb 6e61 edbc 56d1 06bc
000000c0: e4c0 85bd 7be5 41bd 3b74 e63c a455 d63b
000000d0: 859c 03bd 7fc6 b43c c245 123d 3839 09bd
000000e0: c955 303d 2252 8cbd 0cf5 52bd 1846 36bd
000000f0: c891 37bb 097a be3c 0c34 09bd aa5f 90bd
00000100: d5d0 fbbc 5c30 1c3d a6fd 4e3d 029d 5e3d
00000110: e1c0 8ebd abbc 2a3d b36f 1dbc be49 563c
00000120: e342 fcbd 1476 c2bd 8fab 81bc 656d 2b3d
00000130: 3c80 55bc 1499 8dbd a6f6 2ebd 94a0 82bd
00000140: 6e08 8cbd f1f8 dc3c 309b 64bb d13e a4bc
00000150: 841a babd 1af0 a43c 8ab8 de3c 3805 0cbc
00000160: df70 33bd 5150 493d b8f9 2abd 688b 96bd
00000170: 339d f5bc 9ca0 a73c 40f1 ed3c aade abbc
00000180: b905 673a ec44 1ebd 02e9 24bd 7ede 473c
00000190: 8704 39bc 1901 91b9 8ccb fa3c e0f1 363d
000001a0: 94cf 383d 9a3c 87bd 6475 8a3d 01b6 a9bb
000001b0: d17c e3bd b96d 2d3c cbd7 c53c e1d6 193d
000001c0: 577f 373d 2bae d63c c7a4 763d 023a 0abd
000001d0: 022f da3c 477e e9b9 9aec 993c f773 663b
000001e0: ec5f 83bc 80f2 103d 4bd4 fbba e62f 823d
000001f0: 244d e2bc 9e2d bc3c 17ee d2bd 1256 7dbd
00000200: a8ec 003d e86c 543b 1cc8 96bc cce7 09bb
00000210: c332 9d3c 08c3 44bc aeb0 093d 2c2c 933d
00000220: b8ef c6bc 4958 45bc 5833 0fbd 4d37 d03c
00000230: 9bc8 95bc aa28 9bbc 2620 c93b eda5 fe3c
00000240: 95d5 773d dfab 23bd bf18 f3bb 279c e33c
00000250: 8f62 11bd 3b29 393d 2026 01bc d611 333d
00000260: d065 babc 7ddc aebd 3058 bebc fe23 b23c
00000270: c71d 913c 600a 353d 87e0 903c 170b ad39
00000280: c2d7 11bd 1db5 d93b cc1a 9b3d 7d00 4cbd
00000290: 30f5 82bd 3213 ec3c acf3 e73c 7c0c 413d
000002a0: 9824 d8bc af19 6e3b 83a2 95bc be3d 0fbd
000002b0: a1e6 153d 0577 ac3b 4ea1 d8bb 3f2a ecbb
000002c0: 407c 94bc d6b1 023d cc86 243d 9eac bdbd
000002d0: 98d4 a2bb 8675 c0bb d0b4 523a 4f75 4dbc
000002e0: c1c5 9bba 2618 c13c 17c7 54bd 7a5b abbc
000002f0: 426d f93c 7a4d 9b3d 0e70 2d3d bf13 a9bd
00000300: 5a79 c53c 05cb 88bd 86c2 8abd a38b c1bc
00000310: edf1 4ebd b3ea d53b b79d 9a3a 6eef 893c
00000320: 01c5 8e3d 9efc 2c3c f7bf 133d dde6 383d
00000330: 55ba e63c 0493 603d e6a3 6abd 3cfc ddbc
00000340: 1d0d 0c3c 9f30 adbc f9c4 203d 631f 85bc
00000350: faa1 663d 0077 62bd 0e7f d23c d84e a63b
00000360: 12eb 783c 0003 c4bc 720c 8c3c 5e60 d7bc
00000370: 627a 7c3d adaf 6ebc 2221 153c 2f26 7a3d
00000380: 4824 28bc 8c08 543d 603e 6c3d b781 3a3c
00000390: a81d 103d 7f2c 62bd 2220 e8bb b722 2c3d
000003a0: 758f d03b adb9 a93c 7286 383b 3b66 ac3c
000003b0: 6e3a cf3c aa58 98bd 936b 7e3b b829 7f3d
000003c0: 2526 013d 0249 6a3c 57a9 013d a7d8 75bd
000003d0: 4fcc 6abd 0e6b 203d c21b 16bd 9bcc 2a3c
000003e0: de83 553d ad03 043c 8b74 51bd eac4 dabb
000003f0: 6d05 07bd aaa9 713c a06c 393c 7867 0fbe
0.07491204 -0.028866237 -0.0062670466 -0.024356963 -0.055123348 -0.0658925 -0.114487335 0.029425584
0.024704453 -0.03519853 -0.03173393 -0.04367311 0.028808435 0.023165567 -0.0046001724 0.016195297
-0.047202475 -0.00984017 -0.03850071 -0.018585537 0.06023236 0.03943788 0.008775509 -0.014600067
-0.11787667 -0.06869926 -0.02036111 -0.015801428 -0.03222557 0.040401544 0.031526405 0.045597255
-0.028350038 -0.15044907 -0.023032371 0.037770245 0.011276351 -0.019891031 -0.041386493 -0.027367461
0.012708397 -0.0155513575 0.020821303 -0.040672 0.059201125 -0.006065058 -0.028977122 -0.0082286205
-0.065309316 -0.04733799 0.028131595 0.006540971 -0.03213169 0.022067307 0.035711057 -0.033501834
0.04305056 -0.06851603 -0.051503226 -0.04450044 -0.0028010476 0.02325155 -0.0334969 -0.070494965
-0.030739227 0.038132057 0.050534867 0.054348953 -0.069703825 0.041683834 -0.009609151 0.013079105
-0.12317445 -0.09495178 -0.015828876 0.041852374 -0.013031062 -0.06913963 -0.04271569 -0.06378284
-0.06837545 0.026974173 -0.0034882538 -0.020049484 -0.09087089 0.02013402 0.027187604 -0.008546166
-0.043808814 0.04914886 -0.041742057 -0.073508084 -0.029982185 0.020462327 0.029045701 -0.020980198
0.00088128034 -0.038639948 -0.040261276 0.012199042 -0.011292583 -0.00027657373 0.030614637 0.044664264
0.045119837 -0.06603356 0.06760672 -0.0051791673 -0.11107791 0.010585242 0.02415075 0.03755844
0.044799175 0.026206097 0.060215738 -0.033746727 0.026633743 -0.00044535307 0.018789578 0.0035164335
-0.01603695 0.035387516 -0.0019213049 0.06356792 -0.027624674 0.02297097 -0.10299318 -0.06184966
0.031475693 0.0032413546 -0.018405966 -0.0021042703 0.019189244 -0.01200939 0.03361576 0.071861595
-0.024284229 -0.012044975 -0.034961075 0.025416994 -0.018284133 -0.018940289 0.0061378656 0.031084979
0.060506422 -0.03995883 -0.0074187214 0.02778442 -0.035494383 0.045205336 -0.007882625 0.04371818
-0.022753626 -0.085381486 -0.02323541 0.021745678 0.017714394 0.044199347 0.017685188 0.00033005394
-0.035606153 0.006643905 0.075734705 -0.049805153 -0.06394422 0.028817747 0.028314434 0.047131047
-0.026384637 0.0036331227 -0.018265968 -0.03497099 0.036596898 0.0052632117 -0.006611026 -0.0072071846
-0.018125653 0.03190788 0.040167615 -0.0926144 -0.004969191 -0.005873385 0.00080378074 -0.012540176
-0.0011884497 0.023571085 -0.05194768 -0.020917643 0.030447606 0.07583137 0.04234319 -0.082557194
0.024105716 -0.06679348 -0.06775384 -0.023626154 -0.050523687 0.0065282225 0.001179627 0.016837802
0.06971169 0.0105582755 0.036071744 0.045142043 0.028165022 0.054827705 -0.057285212 -0.027097814
0.008548048 -0.021141348 0.039250348 -0.016250318 0.056306817 -0.05528927 0.02569535 0.005075317
0.015192764 -0.023927212 0.017095778 -0.026291069 0.06164015 -0.014568252 0.009102138 0.06107157
-0.010262556 0.051765963 0.057676673 0.0113834655 0.035184532 -0.055218216 -0.0070839087 0.042025294
0.0063647577 0.02071842 0.0028156308 0.021044841 0.025296416 -0.07438786 0.0038821443 0.062295645
0.031530518 0.014299633 0.031655636 -0.06002107 -0.05732375 0.039164595 -0.036647566 0.010424758
0.05212771 0.008057517 -0.051136535 -0.006676306 -0.03296416 0.014749924 0.011317402 -0.14004314

conc_conv.3.bias f4 [128]
00000000: 1f4a a13c ecae 013d 5ddd 6e3d fd25 7a3d
00000010: 5a7c 943b 136d 46bd bfbf a73d ab7f c1bc
00000020: e97e ac3d 3f62 0c3d 61a3 213d c9c9 26bd
00000030: 1c33 e8bb c0ba 6abd 9d2f 25bc 917d c1bc
00000040: 0ccf 3dbd ca65 1d3d e8f0 a0bb cdc3 3f3d
00000050: 30a1 1c3c 31a6 363c 7dad 2e3c cb1a 3bbd
00000060: acce 9db7 0666 bfbb 82f7 15bd eba4 4fbd
00000070: 77de 7f3d f014 9f3d 3dea cc3c df09 96bc
00000080: bef8 3e3b e8bd 2dbc dd3d 56bc b731 0c3d
00000090: 9904 6ebc 3467 02bd 65c3 c1bc 00bb 6e3d
000000a0: aac7 a93d 7bee d83c 784d 6a3b e96a 393d
000000b0: 11dd c73b 087d 60bd 21c4 af3d 64f0 73bd
000000c0: 6b2e dfbc 3c26 b43c cf7b 9abd 4446 8fbd
000000d0: 46a3 6a3d be81 8cbb 4b4c eabc 39bd 3fbd
000000e0: 9870 3f3d 0660 16bd 5be2 ca3c 6e85 03bc
000000f0: fd13 463d 5cb2 453d 1665 fdbc d522 52bd
00000100: d0ba 18bd b192 8a3d ed48 613d 816b 8bbc
00000110: a9c1 5c3d c7c1 db3c ceac 803d dd7b bc3c
00000120: a73a 913d a31b 1e3d facd c13d 71a3 3e3c
00000130: 9d57 3c3d 8ead a23c 3a0e 013d e515 48bd
00000140: 7960 c63d de3d d03a 7031 0c3c a194 8abc
00000150: 23e5 223d 99ad afbd 124d b0bb 7e1a 11bd
00000160: 8723 4b3d 6d85 963c 498d 0cbd b84e 113c
00000170: 85cb 913c 8806 2c3c d08a 92bc 0348 0dbd
00000180: 3f90 51bd 19f2 4e3c d6cb bebb 511c 833d
00000190: a3a7 053c a1ae 123c 11f0 083d b500 e13c
000001a0: 0b42 303d fc63 b7bc 9121 f63b 60cd 07bb
000001b0: b4fe b73c 33ae 72bc 699c f53c fedb ad3c
000001c0: 4320 bf3c a69d a13a b553 053d f8ae 50bd
000001d0: 6a91 78bd d1ab 1ebc a359 07bd f47d 4ebd
000001e0: c89b bdbc 9c23 47bd 583f e7bc bbcf 8e3c
000001f0: 3d65 3e3b 0ddc d83b 89d6 ccbd b502 ec3c
0.019688664 0.03166096 0.058316577 0.061071385 0.0045314254 -0.048443865 0.081908695 -0.023620447
0.08422644 0.034273382 0.03946245 -0.04071978 -0.007086171 -0.057307005 -0.010082153 -0.023619445
-0.046340033 0.03842715 -0.0049115308 0.04681759 0.0095599145 0.011148022 0.01066148 -0.04567985
-1.8812098e-05 -0.0058410196 -0.036612995 -0.050694387 0.06246802 0.077676654 0.025014037 -0.018315254
0.002913996 -0.010604359 -0.013076273 0.0342271 -0.014527463 -0.031836703 -0.023652742 0.058283806
0.08290036 0.026480904 0.0035751741 0.045267973 0.006099351 -0.05480674 0.085823305 -0.059555426
-0.027243813 0.021990888 -0.07543146 -0.06995824 0.057284616 -0.0042879274 -0.028600832 -0.046811316
0.046738237 -0.03671267 0.024766138 -0.008027418 0.048358906 0.0482658 -0.03093199 -0.05130275
-0.037287533 0.067662604 0.055001188 -0.017019035 0.053895626 0.026825799 0.0628296 0.023008281
0.07091265 0.038600575 0.09463115 0.011635647 0.045981992 0.019858148 0.031507708 -0.048849005
0.096863694 0.0015887578 0.008556709 -0.016916575 0.039769303 -0.08578033 -0.0053802812 -0.035425656
0.04959443 0.01837417 -0.034314428 0.008868866 0.017797241 0.010499604 -0.017888457 -0.034492504
-0.051162954 0.012630963 -0.005822639 0.06401885 0.0081576435 0.008952768 0.03343207 0.027466157
0.043031733 -0.022386543 0.0075113256 -0.0020721778 0.02246032 -0.01481204 0.029981809 0.021223065
0.023330813 0.0012330308 0.032550532 -0.050948113 -0.060685553 -0.009684519 -0.03304447 -0.050413087
-0.023145571 -0.048617944 -0.028228447 0.017433038 0.0029052042 0.006618029 -0.10001857 0.028809885

conc_conv.6.weight f4 [5, 128, 3]
00000000: d346 6c3a 5ff2 b7bc 7567 b7bc 5c03 c03c
00000010: 134e e2bc 60ce f6bb d92a a13b 4936 443d
00000020: cce6 5d3c 8f52 54bc 8743 a8bd 807f b13d
00000030: 144d a13a b85c a43c e162 25bd 4d65 523c
00000040: 50f0 9ebb 68b2 6e3c 9523 473a 8b75 24bd
00000050: ecec b83b f2fc 4bbb e922 77bc 666d 803b
00000060: bbd0 56bc 38d3 13bc e779 c1bc 0901 2c3c
00000070: 46d4 933c c185 01bb fe66 30bc bfb2 82bc
00000080: db87 5ebc 8b7a ee3c a0f1 0f3d 7dfc 92bc
00000090: 4e4a 89bc bd5e 723d 41e0 4cbd 35d2 57bc
000000a0: de6c 8cbd a05a 693d 3782 13bb 954c edbc
000000b0: 9b02 b9bb f87e 22bd 238b f13c 3009 ee3b
000000c0: 6290 e83a 576e 2a3c 3e0c b8bc f14b 83bb
000000d0: 9d05 31bb 9710 fdbc df3e c43a 642f 5f3c
000000e0: a9e1 b7bc be79 6cbb e9d3 60bc dd57 41bc
000000f0: 019a baba c4a2 c0bb 4512 b7bc a457 93bb
00000100: 63fe f2bb 0ffe 1e3c f4b0 033d b1ec 033d
00000110: ea2f e23c fd4d 35bb f911 923c d430 1ebd
00000120: 579b dabb 79a6 07bc 2e1e 97bc 36b1 55bb
00000130: 823e 8e3c d73d f1bc 7071 98bb 8db8 89bc
00000140: 4fca 90bc 1248 46bc b9d2 89bc 989e 92bc
00000150: d377 16bc 0c9f 46bc 01ff 78bc 22f3 36bb
00000160: 0270 a3bc e75d 9a3a 8192 153d d648 263d
00000170: d80b 81bc f20f 31bc 46ab 9fba a6a0 6fbc
00000180: 877c 8eba fa38 debc b3f7 9fbb 6807 cb3a
00000190: 28a9 453d c0e0 5abd 01f7 683c 327f 963c
000001a0: bae6 d0bb 1788 4bbd 0f0b 4e3d 769f f53b
000001b0: 3f37 ac3b 91bf d4bb a3b6 15bd 8028 093c
000001c0: 6342 223c cb1c 8cbd cbcc 043c 3350 99bc
000001d0: 2d31 adbc 6604 233c cfe5 463d 2b80 2f3c
000001e0: 9163 93bc d974 39bc 5d13 e03c cd5f 7fbb
000001f0: 3321 25bc f834 96bc 0750 9c3b 9a4a a63b
00000200: 213d 80bc 5009 a4ba 01dd 8fbc 92cd 3bbc
00000210: 2c29 343c ed3f cfbb a498 37bd b94b 1a3c
00000220: 368e 5a3d 18d0 22bd e464 30bc 9b4c 373d
00000230: 3789 95bc 0961 fa3b f197 803c 46a8 aabb
00000240: d464 463c c022 633c ea5a 353d 3537 e73b
00000250: 8a33 1abc 1c8d a5ba b910 313c 35ff 56bb
00000260: 4455 cfbb b87d 9bbc 530f e8bc 4806 383d
00000270: 3d0d acbb 66a1 7dbd d8b5 5d3d aca7 eabc
00000280: efff ee3c fbf0 ddba 6a77 2a3b c2c7 86bc
00000290: 47e4 5f3b fb70 4ebc 62bb 843c 3bdf 45bc
000002a0: a557 92bc 394e 8abc cf48 273d ee23 b43b
000002b0: ecd5 933b c622 9bbc 5826 413a fd0b ddbc
000002c0: 3df9 f2bb 4cd7 433b 730f bfbc 7507 8c3c
000002d0: cfd8 6739 fd23 b83c 1888 23bd ea60 74bc
000002e0: f97a 3f3c 805e 273c 2513 f83b ca41 dc3c
000002f0: b512 2a3d 1a07 a0b9 8c9d d2bc e15a 58bc
00000300: 7960 a0bd 884c 90bd 4914 43bc 49f2 d73b
00000310: d18d 4c3b 8c55 16bd 4f8c f8bb bf9d 2c39
00000320: 6afe 143c 17a0 2abc 5c91 c33b 77d2 113d
00000330: 85ea f3ba 5e40 12bd 1f00 9e3b fa63 e9bb
00000340: 64c3 d8bb 09fe dd3c 6d0d 1cbc efe3 3b3a
00000350: ba76 00bd bdc3 0d39 718a ca3c 69f0 50bc
00000360: 17cd f6bb 3e81 67bc 1af7 5cbc d366 d9bb
00000370: 4e76 25bc 14cf c2bc ce73 28bb 73ac 89bd
00000380: 289b 9f3d f818 0bbc 05c8 02bc a87d adbc
00000390: 0123 b03b 409d a33b 28d3 f6bc 3375 e13c
000003a0: d788 d83b 6547 a63c 94a8 523d f4dc 973c
000003b0: 2bf4 fb3a 67a5 293c 458d 233d fa33 d339
000003c0: 56b1 4a3b 87a4 6abc 3bc7 3a3c a1da 6ebb
000003d0: aa7e 91bc 9296 54bc 3a93 f8bb 8b65 46bc
000003e0: 84f2 bfbc 7144 2bbc 37f9 97bc 3008 46bc
000003f0: 70be 9d3c 04ab 643c e915 0d3d bc06 923c
0.0009013239 -0.022454439 -0.0223882 0.023439102 -0.02762512 -0.007531926 0.004918438 0.047903333
0.013543796 -0.012959137 -0.08216005 0.08666897 0.0012306296 0.020063743 -0.0403775 0.012841535
-0.004850425 0.014568903 0.00075965497 -0.04015116 0.0056434777 -0.003112611 -0.015084007 0.0039192913
-0.013111289 -0.009022526 -0.023617698 0.010498294 0.018045556 -0.0019763561 -0.010766743 -0.015954373
-0.013582195 0.029111167 0.03514254 -0.017942661 -0.016759064 0.05917238 -0.050018553 -0.013172676
-0.06856702 0.056971192 -0.0022508034 -0.028967181 -0.0056460625 -0.039671868 0.02948529 0.007264279
0.0017743225 0.010402284 -0.022466775 -0.0040068557 -0.0027011402 -0.0308917 0.001497235 0.013622139
-0.02244647 -0.0036083306 -0.013722398 -0.011800733 -0.001423657 -0.005878778 -0.022347579 -0.0044965316
-0.007415579 0.009704127 0.032151178 0.03220815 0.027610738 -0.0027664893 0.017830836 -0.038620785
-0.00667135 -0.008279436 -0.018447008 -0.0032606847 0.01736379 -0.029448433 -0.0046521947 -0.016811633
-0.017674593 -0.012102144 -0.016824113 -0.017897889 -0.009183842 -0.012122881 -0.015197516 -0.0027915915
-0.01995087 0.0011777253 0.03651667 0.040596806 -0.015752718 -0.010807024 -0.0012181781 -0.014625704
-0.0010870852 -0.027126778 -0.004881823 0.0015489878 0.048257023 -0.053436995 0.014219047 0.018371198
-0.006375161 -0.049690332 0.050303515 0.007495816 0.0052556093 -0.006492563 -0.03655113 0.008371472
0.009903523 -0.06841429 0.008105467 -0.018715 -0.021141613 0.009949779 0.048559006 0.01071171
-0.017991813 -0.011319363 0.027352983 -0.0038967014 -0.010078716 -0.018335804 0.004770282 0.005074811
-0.015654149 -0.0012514982 -0.017561438 -0.011462586 0.010996144 -0.006324759 -0.044823304 0.009417468
0.05335828 -0.039749235 -0.010766242 0.04475079 -0.018253906 0.007640962 0.015697451 -0.005208048
0.012109 0.0138632655 0.044276156 0.0070561417 -0.009411702 -0.0012630555 0.01080721 -0.0032805924
-0.006327303 -0.018980846 -0.02832762 0.044927865 -0.0052506016 -0.0619215 0.054128498 -0.028644405
0.029174773 -0.001693278 0.0026011118 -0.016452674 0.0034163164 -0.012600179 0.016202632 -0.012077148
-0.017864058 -0.016883003 0.04084092 0.005497447 0.0045115855 -0.01893748 0.00073680794 -0.026983256
-0.0074149654 0.0029882966 -0.023322796 0.0170934 0.00022110644 0.022478098 -0.03992471 -0.014915684
0.011687034 0.010215402 0.0075706416 0.02688684 0.041521747 -0.0003052287 -0.02570989 -0.013205261
-0.07830901 -0.07045847 -0.011906692 0.006590162 0.003121246 -0.036702678 -0.0075850855 0.00016461963
0.00909386 -0.010414145 0.005968256 0.035601106 -0.0018609321 -0.035705917 0.004821792 -0.007122514
-0.0066150893 0.027098672 -0.009524685 0.00071674486 -0.031363226 0.00013519726 0.024724217 -0.012752631
-0.007531773 -0.014129935 -0.013486648 -0.006634572 -0.010099007 -0.023780383 -0.002570379 -0.06722345
0.077932656 -0.00848984 -0.007982259 -0.021178082 0.0053752665 0.004993111 -0.030129984 0.027521705
0.0066081095 0.020297715 0.0514303 0.018537976 0.0019222548 0.010354376 0.039929647 0.00040283782
0.0030928454 -0.014321453 0.011400039 -0.003644623 -0.017760593 -0.012975352 -0.00758591 -0.012109171
-0.02343107 -0.010453329 -0.018551452 -0.012086913 0.019255847 0.013956789 0.034444723 0.017825477

conc_conv.6.bias f4 [5]
00000000: e916 88bd 9772 e33c 0be3 893d 61d0 fcbc
00000010: 16a8 1e3d
-0.06644995 0.027764602 0.06732758 -0.030861082 0.038734518

temp_conv.0.weight f4 [64, 9, 3]
00000000: 1388 153e 56f2 553d 3e02 fc3c 9c7f c33c
00000010: 7ae4 eabd 4128 80be 0cb3 fdbd 2196 92bd
00000020: 3025 1c3d 15b8 adbd 5e7f 76bd 8501 6a3d
00000030: 83ba 1dbe c90b 233d deae c53d f52b 57be
00000040: 8bcf 493c f277 a93d aa42 6fbd 7106 28bc
00000050: d653 0e3d 141a 78be 948d a83c f7d5 623e
00000060: a8c3 85bd 4f44 78bd 0996 063e e00e 35be
00000070: f60f 5abd 9a07 b2bc 46fb 4f3e a0d9 51bd
00000080: 1494 7f3d d985 083d d2ba 82bd aa36 923d
00000090: 3dfe 0ebd 3292 86bc be91 a6bd ac68 ddbd
000000a0: fee4 62bc c1e6 a43d e20e 093e e43a f03d
000000b0: f20a 29be f9f3 f53c 4cd2 8f3d 9a82 793c
000000c0: fa51 bdbd 03d7 483e 5dd1 453d ddef 1abd
000000d0: a42f 113d a41d 8b3d 668e b6bd 53a2 22bd
000000e0: 4527 87bd 64e4 87be a158 04be 8df9 d53d
000000f0: 25e7 5dbc efeb bf3d 944a 1b3e e59e 023d
00000100: 9a92 8c3d 40d7 c1bd 15af 243e 1751 563e
00000110: 4ee6 5c3d 0d57 353e 9985 803d 3d77 4f3e
00000120: d666 ddbd 0a61 243d 2116 983c 644a 07bd
00000130: 3b17 013e 8eea e1bd e56b a43d a422 a8bc
00000140: df44 b8bd 94af 0c3e 71b3 3c3d 2375 253e
00000150: a95d 7a3e db74 99be 35c3 56be d68e 3bbb
00000160: 3025 523d 99d3 c1bc 7c10 843b 40dc 213d
00000170: 4ff3 b63d 864d 98bd bc51 a63d 37a9 303d
00000180: 2d44 71bd 57e5 9fbd f827 2ebc 6ecc f13d
00000190: e116 c8bd bf96 d5bd ee61 b6be f006 413e
000001a0: a11f c13d f9a8 b4bd d9d1 1bbd 52d0 b03d
000001b0: 7c13 8ebd 2218 43be 1651 4cbe bc86 673e
000001c0: 6f2f 1b3d cd09 283e d1c4 73bd ffa6 503d
000001d0: ff5d c2bd ed7c a53d 109e d1bd ee3c d3bc
000001e0: b191 9d3d d4a7 babd 26e3 1d3d cfd8 24bd
000001f0: ae4d e03d 9dae a1bd 8d62 2fbd e9fd 89bd
00000200: f8cd a73d b29f debc 5ae8 d8bc 6f75 633d
00000210: b7a2 5ebc 09dc 9e3d 25ca 81bd 39e5 113e
00000220: ef98 2ebd 1259 c23c 1b81 98bd 00a4 6cbe
00000230: bf0a 1e3e 93c5 f839 da0c f93d 3f85 133e
00000240: 21cb 823d 4b61 083e 0bc3 66ba c544 06be
00000250: 70c9 2b3e 78e6 54bd 3c52 aebe 5189 c8be
00000260: 8776 99be 752f 753d 2a58 83be 0c06 f03c
00000270: 7d2a 9dbc 38cb 8e3d 103d c3bd abff 8e3d
00000280: 41ce 063d 74e5 e1bd 97d7 393e 708a 8b3c
00000290: 4a4e 4c3e 3ad6 dabd e5a3 40bd 5043 3dbe
000002a0: c0fe c4ba 7f08 feba 6b78 e1bc ebd5 d4bd
000002b0: d478 e2bc dd97 dfbd e323 ac3d 20c0 373d
000002c0: 5715 dcbd c247 0bbe c4c3 ed3d 0ca9 4abd
000002d0: b8ae d93d 4d0e 33be b637 babd 326c 4abe
000002e0: ca62 df3d 174c 0d3b 1c97 583d ad01 283a
000002f0: e2c0 34bd 1cc2 f2bd 7c6a 783c 11dc 56ba
00000300: e1f1 033e 7ed3 1f3e 2edc 1e3e 0386 adba
00000310: c7a2 553d e8e1 a73d 5ce0 2e3d 202a 113d
00000320: dfc1 25be cbf4 5abd 019e 1c3e 4dee 0abe
00000330: 5b5d 0ebe bce6 dabd a6b2 8c3d b9a1 30bd
00000340: d637 cfbc 84d2 c4bc b182 33be 3cae 123d
00000350: aab3 d53b 6266 f1bd a22e d83d dca7 1abd
00000360: 078f 353e 38d8 70be 72e4 72be a80d ae3d
00000370: a9bf 58bd 8806 8d3e 7921 6abc cfb7 7a3c
00000380: ee18 60bd 35de 79bd 1e8b fa3c ebb0 633d
00000390: 97cb 963d 205e 29bd 612f 593d 7e01 803c
000003a0: b6d3 2cbc 445d d73d d9d9 88bd 9248 033e
000003b0: bcda b7bd b0dc 91be a831 913e 0138 babd
000003c0: 4530 59bd 60dd de3c ff28 803c 5af4 02bd
000003d0: c2d2 7e3e 3191 5ebe e5fc 413d bbdc 5f3e
000003e0: b49a 053e 871a 543e 7ed1 bb3c d7bb 10be
000003f0: 3ad5 a6bb 73ee c0bd b226 c03d ef5c be3d
0.1460269 0.052233063 0.030762788 0.02386456 -0.1146936 -0.2503071 -0.12387666 -0.07157541
0.038121402 -0.084823765 -0.06018006 0.057130355 -0.1540318 0.03980616 0.09652494 -0.21012862
0.0123175485 0.08274831 -0.058413185 -0.010255442 0.03474792 -0.24228698 0.020575322 0.22151934
-0.06531459 -0.06061202 0.13143171 -0.17681456 -0.053237878 -0.02173214 0.20310697 -0.051232934
0.062397078 0.033330772 -0.063832894 0.071393326 -0.03491043 -0.016427133 -0.08133267 -0.1081098
-0.013848541 0.08051825 0.13384584 0.117299825 -0.16508082 0.030023562 0.07022533 0.015228892
-0.092441514 0.1961327 0.048295368 -0.037826408 0.035445824 0.06792763 -0.08913879 -0.039705586
-0.06599287 -0.26541436 -0.12924434 0.10447989 -0.013543879 0.09371173 0.15165168 0.031889815
0.068638995 -0.09464884 0.16082413 0.20929371 0.053930573 0.17708988 0.06275482 0.2026033
-0.1081063 0.040131606 0.01856524 -0.03302993 0.12606518 -0.11031066 0.08028392 -0.02052433
-0.08997511 0.13738853 0.046069566 0.16157965 0.24449791 -0.29971966 -0.20972903 -0.0028619072
0.051304996 -0.023660468 0.0040302854 0.039516687 0.08933126 -0.074366614 0.08121058 0.043130126
-0.058902908 -0.07807415 -0.0106296465 0.1180657 -0.09769989 -0.10429143 -0.3562159 0.18850303
0.09429861 -0.088212915 -0.038041923 0.08633484 -0.0693731 -0.19052175 -0.19952807 0.22609991
0.037887033 0.16409989 -0.05951387 0.05094051 -0.094905846 0.08080468 -0.10235226 -0.02578589
0.07693804 -0.09114042 0.038546704 -0.040245827 0.10952316 -0.07894633 -0.042818595 -0.06737883
0.08193582 -0.027175758 -0.026477981 0.055531915 -0.013588599 0.07756812 -0.06337384 0.14247598
-0.042626318 0.023724113 -0.074465 -0.23109436 0.15433787 0.0004744945 0.12160654 0.14406298
0.063864 0.13318364 -0.00088028674 -0.13112171 0.16776061 -0.051977605 -0.34047115 -0.39167264
-0.29973242 0.05985971 -0.256532 0.029299758 -0.019185299 0.06972355 -0.09533131 0.069823585
0.032911543 -0.11030093 0.18148647 0.017033786 0.1995174 -0.10685392 -0.047031302 -0.18482709
-0.0015029535 -0.0019381194 -0.02752324 -0.10392364 -0.027645506 -0.109176375 0.08405282 0.04486096
-0.10746258 -0.13601592 0.11609605 -0.049477622 0.10629028 -0.17485924 -0.09092657 -0.19767836
0.109075144 0.0021560246 0.052878484 0.0006408941 -0.04412926 -0.1185343 0.015162107 -0.00081962446
0.12885238 0.15608022 0.1551368 -0.0013238791 0.05215719 0.08197385 0.042694435 0.035440564
-0.16187237 -0.05345611 0.15294649 -0.13567467 -0.139028 -0.1068854 0.06870012 -0.04312298
-0.02529518 -0.024026163 -0.17530324 0.035810694 0.0065216618 -0.11787106 0.105557695 -0.03775774
0.17730342 -0.23519981 -0.23719957 0.084986985 -0.052917156 0.27544045 -0.014290207 0.015302612
-0.054711275 -0.06100293 0.030583914 0.055588644 0.073630504 -0.04134953 0.0530237 0.015625712
-0.010548523 0.10515836 -0.06682176 0.12820652 -0.08977267 -0.28488684 0.28358197 -0.09092713
-0.05302455 0.02720517 0.015644548 -0.031971313 0.24885085 -0.21735074 0.04736032 0.21861546
0.13047296 0.20713244 0.022927042 -0.14134155 -0.0050913366 -0.094204806 0.093823805 0.092950694

temp_conv.0.bias f4 [64]
00000000: 8d3e 4d3c d302 95ba 8961 69be ac10 c5b9
00000010: 0b67 b239 ea06 fdbd 17f6 f6bc e93c cebc
00000020: 0499 113e b55e bcbc 1c01 f339 88a7 c4bb
00000030: 5329 143e a251 63bd 25e5 423b dd1b d3bb
00000040: 7b55 a63d 8541 07be 600f bebd d890 d73b
00000050: ac32 ebbd dcec 81bd 1371 46bb 4007 cabd
00000060: 5cc8 d9bd ef0f 493e 402b 683e b7d6 c3bd
00000070: f3b4 0c3c 5ef9 0d3e 85c4 193e 2032 51be
00000080: f12a 05bd 2e53 e5bd 6402 0c3d 7934 0e3d
00000090: 7733 703e 6a4f b93d 12aa 013e 686e 0dbd
000000a0: c6e6 1fbe 9c5a aabb 0afc 443e 8346 3a3d
000000b0: 5419 a5bc 6d46 bf3d 2e2d 87bd 88ea 363d
000000c0: e2d1 483d 7580 6b3d ec6b c6bd 05c0 893b
000000d0: 246e e2bb 9bf2 163d 1986 49be 9731 8d3d
000000e0: e4d0 323d dfa2 debd 72de 9c3d 27a6 e8bd
000000f0: 0f37 543d 1a2a c7ba 315b 813d 29e7 86be
0.01252712 -0.001136864 -0.22791113 -0.0003758719 0.0003402758 -0.123548344 -0.030146642 -0.025175529
0.14218527 -0.022994379 0.00046349398 -0.0060014166 0.14468889 -0.055497773 0.0029738632 -0.0064425305
0.08121773 -0.13208587 -0.09280276 0.006578546 -0.11484274 -0.063440055 -0.00302798 -0.09864664
-0.10633919 0.19634984 0.22672749 -0.09562438 0.0085880635 0.13864657 0.15016373 -0.20429277
-0.032511655 -0.11197506 0.034181967 0.03471801 0.23457132 0.0904835 0.12662533 -0.03452912
-0.15615377 -0.0051987898 0.1923677 0.0454774 -0.020153679 0.093396045 -0.06600414 0.04465726
0.049028285 0.057495553 -0.09688553 0.0042037987 -0.0069101024 0.03685246 -0.1968006 0.06894224
0.043656245 -0.10870909 0.076596156 -0.11359816 0.05181032 -0.0015195042 0.063162215 -0.26348236

temp_conv.3.weight f4 [64, 64, 3]
00000000: 0596 613d 24b4 45bd c656 603d bc8e 67bd
00000010: e6fd 963d 7e52 153b 65bc 81bc 9e5e 443c
00000020: a1b9 cc3c 5f7b 7d3e 5837 533c 742a 84bd
00000030: 585a 713c 1d19 40bc bc13 c7bb b064 07bd
00000040: b9d2 9d3a bd79 333c 2a02 14bd 180f 40bc
00000050: df0a 2d3d 4222 21bd d06c 6abd 80f3 07bd
00000060: 1614 c63d 5e04 cebd a586 38bd e01f f43c
00000070: 6170 dbbd 2b56 f33d 247e e73d 023a a8bd
00000080: 0cb7 afbd b3b1 283e 15fd 483d 5b3d c2bd
00000090: cd4d 8ebd 1a20 813d 278f ea3b b325 8c3c
000000a0: a8ad 5b3d c4b9 4dbd 7f1a f4bb 8be9 0ebd
000000b0: 1d30 453d 257a 9dbd 9ea5 003e 569d d03d
000000c0: 234e 143c 19fb 0d3c e3ac 26bc 4abf 443a
000000d0: 591c 863d 2f0b 9c3c 3a2f 84bb 0030 cb3c
000000e0: 3ba7 4cbc d5bb 27bd 179f d13d 8891 24bd
000000f0: a471 97bc 615a 463c 4e80 a23c c58e 98bd
00000100: 9db1 24bb 299d 803d 9483 953b 9817 493c
00000110: 4f52 c4bc b440 323c 35d3 513d 5702 363d
00000120: 6289 00bd 32ad 69bc 2b9c b2bb ea90 5ebd
00000130: 5776 303d 6c6c 0c3d 3bc9 cbbd 4244 013d
00000140: 5b51 a63c 6b2c 493c c44d 87bc 5ac6 513d
00000150: 94ca 8f3d e35a abbd 48ae 0c3d 202b b23d
00000160: 5579 06bd 3650 a3bd 0798 11be f6e3 4fba
00000170: 9fb5 cf3d 821c 3bbd 2c30 773d 1d14 ddbc
00000180: e4a7 4ebe 0d46 933d b2b2 f93d cd67 d73d
00000190: 675f 23bd 8439 92bd b9ed 21be d0d0 1c3d
000001a0: 7fc4 8c3d 9839 d63d 5969 9bbd 39b6 043c
000001b0: b562 3dbe 3b01 c23d 5670 143d 56f0 f4b8
000001c0: cf68 8c3b 079f 29bb 1b40 983b 6d8b a9bc
000001d0: 5fa5 213d 1cba 98bc f7ae 7f3d f4c1 a2bc
000001e0: e542 37bd 4bf8 a4bc 2de7 09bd a279 bebc
000001f0: d796 363c 9051 bcbd e340 45bd eeda af3c
00000200: c829 13bc 2032 b9bd 492a 623d fab3 ff3c
00000210: 161c 0dbd 756d 07bd 9f2a bb3d 6f29 88bd
00000220: 2cfe 823d 608b feba 066a 403b 034e b73c
00000230: da9f 943d 5385 923c 1c2d 36bd badf ca3d
00000240: 2df0 043d 2dcc 49bc ca8a 8bbd aac0 1abd
00000250: 0940 993d 1475 d4bc 6ae3 9f3d 5d1b a9bc
00000260: 9b7b 9fbd 5ef6 9c3d ade8 72bd 2889 05bc
00000270: 58ad a83c 16d6 4f3c 11ed 98bb 1ed3 2c3c
00000280: 1cca fcbc 70e5 42b9 62d3 e13c 3103 e5bc
00000290: ace4 0d3c b570 d73c 0d81 e43b d302 eb3c
000002a0: ca0e 273a 8967 033e a51f dcbd a1dc af3c
000002b0: c3d7 59bd 4fbb 98bd 056c 4c3c 8aa7 b93d
000002c0: 9a91 9d3c 27f1 94bd 2cd9 2d3d d041 0b3d
000002d0: 664f a5bd d265 c33b cede 88bd ab34 143d
000002e0: ce24 873d 8f36 d5bd ecb3 673c 3fe5 763d
000002f0: e77a 9f3c 3540 9f3d 5ecf 14bd 5e35 d23c
00000300: fd65 f4bd ca68 193d df39 aabd 7b3c 30bd
00000310: 79c1 223d ae81 743d faae 98bd 3215 1fbd
00000320: ac28 373d c472 c7bd 30a9 973d 36d9 03bd
00000330: 7fad 24bc d5b8 c53d 9f68 653d 5897 0bbd
00000340: 0dab c5bb cd80 08bc 82bc afbd 5cbc 6a37
00000350: 8a02 44bc 68fa 383d 5a7e 20bd dee9 833d
00000360: 8c03 113d 10a4 d93d 7d9a 61bc ed5f 1b3d
00000370: e351 8cbc e1fb b63d 3a0c 60bd 7a59 ecbc
00000380: 65c4 bfbd c4ca ef3d 16bd 323e b301 0bbb
00000390: 1cb7 78bd 7793 babc c3f1 6f3d f74c 6c3d
000003a0: d8bc c5bc 8216 983d fc31 fcbc cf0d b13d
000003b0: 9421 3e3d 181b 4fbd 8ecd 9fbc 117a 43bb
000003c0: 8cfe ed3b c203 f9bc dec3 70bd 16ec 783d
000003d0: 0ecb 223d 4783 93bd 62f9 1e3d aed5 f73c
000003e0: 778c 563c efb1 fdbc 0437 82bc 5fbb 653c
000003f0: 031d 17bd 2251 0bbd 31ec 2a3d 2e2d 91bc
0.05507471 -0.0482675 0.054770254 -0.056532606 0.07372646 0.0022784765 -0.015836904 0.011985449
0.024990859 0.24754094 0.012891613 -0.0645341 0.014731012 -0.0117247375 -0.0060753506 -0.033055007
0.001204095 0.010954318 -0.036134876 -0.011722349 0.042246696 -0.03933931 -0.057232678 -0.033191204
0.096718 -0.10059427 -0.045050282 0.029800355 -0.10714794 0.118816696 0.11303356 -0.08214189
-0.08579835 0.16474037 0.049069483 -0.09484359 -0.06948433 0.06304951 0.0071581784 0.01710782
0.05363241 -0.050225988 -0.0074494476 -0.034890693 0.048141588 -0.07689313 0.12563178 0.101862594
0.009051832 0.008665823 -0.010173055 0.0007505311 0.06548376 0.019048302 -0.00403395 0.024803162
-0.012491043 -0.040950615 0.10235422 -0.040177852 -0.018486805 0.012106509 0.019836571 -0.07449106
-0.002513028 0.06279976 0.0045628045 0.012273692 -0.023965029 0.010879684 0.051226813 0.044435825
-0.03138102 -0.014262484 -0.0054507456 -0.05433742 0.043081608 0.034283087 -0.09950491 0.031559236
0.020302465 0.0122786565 -0.016516574 0.051214553 0.070210606 -0.08366945 0.034345895 0.08699632
-0.032830555 -0.079742834 -0.1421815 -0.0007930392 0.10142063 -0.045681484 0.060348675 -0.02698713
-0.20181233 0.071910955 0.121922866 0.10517845 -0.039885905 -0.071398765 -0.1581334 0.038285077
0.06873416 0.10460204 -0.07588453 0.008100086 -0.18494685 0.09472891 0.036239944 -0.00011679593
0.004284955 -0.0025882141 0.004646314 -0.020696366 0.03946435 -0.018643431 0.06242272 -0.019867875
-0.04474153 -0.020137927 -0.033667732 -0.023251358 0.011144361 -0.09195244 -0.048157584 0.021466698
-0.008982129 -0.09042764 0.055216108 0.03121375 -0.034450613 -0.03306337 0.09138989 -0.06648528
0.06396136 -0.0019420199 0.002936007 0.022376066 0.07257052 0.01788584 -0.044476613 0.09905954
0.032455612 -0.012316746 -0.06813581 -0.037781395 0.07482917 -0.025934733 0.07807048 -0.02064293
-0.07787248 0.07664178 -0.05930393 -0.008150376 0.02059047 0.012685319 -0.0046669324 0.010548381
-0.030858092 -0.00018586754 0.027566615 -0.027955623 0.008660477 0.02629886 0.006973392 0.02868787
0.0006372748 0.12832464 -0.10748223 0.021467509 -0.053184282 -0.07457601 0.012476926 0.09065159
0.019234467 -0.07272559 0.04244344 0.03399831 -0.08071785 0.0059630657 -0.066831216 0.03618304
0.06598817 -0.10410797 0.014142018 0.06027722 0.019467784 0.077759184 -0.036330573 0.025660213
-0.11933515 0.03745345 -0.08311819 -0.04302643 0.03973529 0.059693985 -0.07455249 -0.038838573
0.044716522 -0.09738687 0.07405317 -0.03218957 -0.01005113 0.096543945 0.056007978 -0.03407988
-0.0060323537 -0.00833149 -0.08580877 1.3991343e-05 -0.011963496 0.04516068 -0.039183 0.06441091
0.035403773 0.106269956 -0.013769743 0.03793328 -0.01712889 0.08934761 -0.05469916 -0.02885126
-0.09363631 0.11708596 0.17454943 -0.002121073 -0.0607215 -0.022775395 0.05858017 0.057690587
-0.0241379 0.07426168 -0.030785553 0.08645212 0.04641874 -0.050562948 -0.019507196 -0.0029827396
0.0072630104 -0.0303973 -0.058780544 0.060772024 0.03974443 -0.072027735 0.03881205 0.030253258
0.013095013 -0.030968634 -0.015895374 0.0140217235 -0.036892902 -0.03401292 0.041729156 -0.017721739

temp_conv.3.bias f4 [64]
00000000: 2ba3 d0bc 5431 c63d 66f2 3a3d 5d4b 303d
00000010: 8de2 073e 9a28 d6bb 1506 a53c e360 4abb
00000020: 7361 623d 411d 393d 89bc abbc 8815 cf3c
00000030: f75d 1a3e e734 4ebd 84ac 553d ed10 863d
00000040: 1801 c43c ef02 61bd e0f5 0fbd e50b 74bd
00000050: a1ef 563c 6223 903d 24f1 32bd e613 783d
00000060: 60c6 753d 2e6a b83c 4920 3f3d fbbb e03c
00000070: 2297 23bc 2798 e2ba c7ae ca3c 2634 df3c
00000080: 3c1e c0bc daff f53c 4efd 02bd f0b2 043d
00000090: 67f5 8a3d 11b6 a33d 29ea 8bba 0ac9 633d
000000a0: aa4f 9a3d cb0b a8bc 73c3 e8bc 97dc 8d3d
000000b0: 165c 3f3d 09aa 4f3d 9a6c 41bd 4b11 a8bd
000000c0: d272 7a3d 1ea2 633d d9c2 80bc c9a2 5e3d
000000d0: 574a 153c 84c8 473c 6bf3 94bc 7303 903d
000000e0: 69a9 0cbd e886 c13c c155 8c3d f469 603d
000000f0: 8401 223d c898 633d faea 3f3d f375 133d
-0.02546843 0.09677377 0.045641325 0.043040622 0.13270016 -0.006535602 0.020144502 -0.0030880503
0.055268716 0.045193914 -0.020963924 0.025278822 0.15074907 -0.05034342 0.052166477 0.06546197
0.023926303 -0.05493444 -0.035146594 -0.059581656 0.013118655 0.07037999 -0.043687 0.06056585
0.06000364 0.022511568 0.04666165 0.027433386 -0.009984763 -0.0017287777 0.024741543 0.027246546
-0.023451917 0.030029226 -0.03197985 0.03239721 0.06785088 0.07993711 -0.0010674644 0.055611648
0.07534726 -0.020513436 -0.02841351 0.0692684 0.04671868 0.050699268 -0.04722271 -0.08206423
0.061144657 0.05557453 -0.01571791 0.054354463 0.009111962 0.012193803 -0.018182477 0.07031908
-0.03434125 0.023623899 0.06852294 0.054788545 0.039552227 0.055565625 0.04685495 0.036001157

temp_conv.6.weight f4 [2, 64, 3]
00000000: f06f 1d3c 2508 7aba acb3 333d 56cb 403b
00000010: c0f9 ce3c f5cd 2d3c 14f0 b6bd f3b8 96bd
00000020: 2fd1 0cbe b050 b13b a22d 9a3c 15a7 613c
00000030: 68ca 93bc e69e cc3c 0647 97bb d453 b53a
00000040: e327 1d3d a5b0 063b 3260 de3b c8e9 b33c
00000050: 1bbb dc3b 548b c03a 5f2f 8a3c 2196 903c
00000060: 1cce 553c db99 343d c2b5 cdbc 26a2 083b
00000070: 665c 643c 39da f03c 4843 8339 a877 ac3c
00000080: 7df3 ba3c 603f 6b3d c390 aa3c 7174 48bc
00000090: 657e 3ebd 66e4 2e3d 3505 603b 92b8 c43a
000000a0: fc6a 5b3c 31f7 513c ea52 783b 0497 bd3c
000000b0: bd54 873c 5d5a e5bb d891 c0bd 98d9 16bd
000000c0: 9f0b ce3b 92df c63c 2f63 c53c 70ee 7f3c
000000d0: b754 d03b 67d5 1e3d 0444 96bc 1395 473d
000000e0: 3c06 d2bc 241e 83bb 58b5 893c 2c26 6e3c
000000f0: e7c6 1abc a036 b93c aec3 cd3c 5310 f9bc
00000100: cb9e 3dbd 35e5 49bd 3c5b b5bc 54f8 253c
00000110: dcf6 853c e168 48bd 28d9 92bd cdf3 92bd
00000120: f210 75bb f5db bc3c 4b2a 5a3c f265 b7bb
00000130: 92c3 143d f41c 3f3c 5d3c 4d3c a746 7ebb
00000140: 0241 4a3d 5a45 02bc 516e 4a3c 9f6e c43c
00000150: 36b8 86bc b356 33bc e98e 953c 58eb 9d3c
00000160: c72d e7ba 259e 1a3d 562c 0d3c 3bcf 7d3c
00000170: d76c 303c 6016 cf3a a50c 37bd 425f d7bc
00000180: 2e86 9fbb d616 213d 0a82 09bc 1104 d7bc
00000190: 3c98 14bd 1b26 04bd c7d4 183c c42a d13b
000001a0: 9b77 803c dc70 71bc eda2 373c a5c1 023c
000001b0: 4665 733c 6f49 0c3c 50b9 083d 3ca2 c3b9
000001c0: a315 cc3c 64e6 c33c 3770 c939 eb78 be3c
000001d0: e7b6 a63c 6580 c23a d76e 463c ab86 a93c
000001e0: 92ea 293a faa1 1d3c 84fc 623c 72a5 c6bb
000001f0: f379 163d 5efe 8ebd 5f2c e539 5ba0 7a3c
00000200: 454f 973c 70ff 813c 2a2d d63c 7a98 c8bd
00000210: 02ce baba a350 a23c 0faa a53c e2fa c93b
00000220: a532 a23c 52e9 f73c 13ad a6bb 292b 9f3a
00000230: 7354 f73c b6ca b23a b8c9 dabc 1464 eebb
00000240: 3e62 8bbc a672 d13b 36f4 9d3c a5cd 873b
00000250: 7c08 bc3c b3a6 483c 2f43 f03b d276 e13b
00000260: 315a dd3c 41cc 4bba 3b0e 363d c61a 08bd
00000270: 1d40 86bb c068 a63c 8fc2 ec3b 2152 cbbb
00000280: a24a 9e3c 58b0 a03c 199e e33d f176 09bd
00000290: 4a6e 2a3d fd5a 8f3d 8d43 f3bc 7b8d 35bd
000002a0: 06ac ccbb 67ed b93c 4cc5 6a3c ef7b f7bb
000002b0: 79d2 2d3c 0e29 093d 6cba 8d3c b2b8 1c3d
000002c0: 98d3 7bbc 36d6 55bc 6896 083d 78b4 4c38
000002d0: cb46 fe3b 42cd 553c 2c7d 9c3c e981 91bb
000002e0: 51af 083d 5f75 283b adf6 b13b fafe 3d3c
000002f0: 0a9d db3c d73c 06bd a2c8 98bd 3257 863c
00000300: 7907 fe3b a601 c23b b385 353d 141e 26bc
00000310: fcf0 903c 6051 a4bc c430 77bd e9ec 1f3c
00000320: 18d2 8abd 6465 f83b b94d 6ebb b920 0dbc
00000330: 5fc2 36bd 9859 7a3d 3f18 5cbc f275 8f3c
00000340: e359 87bc 0ef8 fabc 417b 713c 1190 0cbd
00000350: 9adf 2b3b 3d9d 1f3b 953f 90bc fc5d 19bc
00000360: 4045 9b3c 32ae 103d c4d7 5fbc 8008 abbb
00000370: 7a6b 553c 8bf2 1cbc 4ef0 d6bb fcc6 11bc
00000380: 9f7a 7a3b 792a 9b3c d727 bf39 caa5 78bb
00000390: 3242 1cbd 84f6 163d 5170 8c3a 3c5f ce3b
000003a0: 6e14 a1bc 21ed 0b3b 59ef 533b f195 c2bb
000003b0: c5ad 6abb 6bee 683c b582 dcbd 5bfb 153d
000003c0: c8a7 063c 8e91 92bc 4a2b 023d d903 6a39
000003d0: cd0b 5ebc 3ff3 603d 456d 3cbb c7c3 6ebd
000003e0: 7aca 613c d7a7 743a c18c 72bc ac8c 53bb
000003f0: 9530 13bb 0c48 9cbc e1c4 96bb c344 f13c
0.0096092075 -0.0009537957 0.04387252 0.0029418073 0.025265574 0.010608186 -0.0893251 -0.07359495
-0.13751672 0.00541123 0.018820588 0.013772746 -0.01804085 0.024978112 -0.004616621 0.0013834187
0.038368117 0.0020552066 0.0067863697 0.021962062 0.006736172 0.001468996 0.016868291 0.017649712
0.013049629 0.04409204 -0.025111083 0.00208486 0.013938045 0.029400932 0.00025036396 0.02105315
0.022821182 0.057433486 0.02082098 -0.012234793 -0.046507258 0.042698286 0.003418279 0.001500862
0.013392206 0.012815283 0.0037891218 0.023143299 0.016519899 -0.0069992975 -0.094028175 -0.036828607
0.0062880064 0.024276529 0.024095146 0.015620813 0.006357755 0.038777735 -0.01834298 0.048726153
-0.025637738 -0.004001396 0.016810104 0.014535468 -0.009446836 0.022609055 0.025117721 -0.030403292
-0.046294015 -0.049290854 -0.02213823 0.010130007 0.016353063 -0.048928145 -0.071703255 -0.071754076
-0.0037394133 0.023054102 0.0133157475 -0.0055968696 0.036319323 0.011664618 0.012526599 -0.0038799436
0.049378403 -0.007951105 0.012355403 0.02397853 -0.01644526 -0.010945964 0.018256621 0.01927726
-0.0017637544 0.037748475 0.008616528 0.015491302 0.010768137 0.0015799515 -0.044689793 -0.02629054
-0.0048682904 0.03932842 -0.00839282 -0.026247056 -0.036277995 -0.032262903 0.009328074 0.006383272
0.015682032 -0.01473638 0.011208278 0.007980739 0.014855688 0.00856243 0.033379853 -0.00037314172
0.024912661 0.02391357 0.00038421314 0.023251018 0.020350887 0.001483929 0.012111387 0.020694098
0.0006481792 0.009621138 0.01385415 -0.006062203 0.036737394 -0.069821104 0.00043711343 0.015297021
0.018470416 0.015868872 0.026144583 -0.097947076 -0.0014252069 0.019813841 0.020222692 0.0061639408
0.01979954 0.030262623 -0.00508655 0.00121436 0.030191636 0.0013640735 -0.026707515 -0.007275114
-0.017014619 0.006391841 0.019281488 0.004144388 0.022953264 0.012246775 0.0073322277 0.0068806196
0.027020546 -0.00077742717 0.044447165 -0.03322866 -0.0040969984 0.02031362 0.0072253416 -0.006204859
0.019322697 0.019615337 0.11114139 -0.033560697 0.041609086 0.069997765 -0.029695297 -0.04432438
-0.0062460927 0.02269621 0.014329266 -0.007552616 0.010609263 0.03348642 0.017300807 0.038262077
-0.015370272 -0.01305156 0.033346564 4.8805465e-05 0.007759904 0.013049426 0.019102655 -0.0044405353
0.03337032 0.0025704724 0.0054310174 0.011596436 0.02680828 -0.032772865 -0.07460143 0.016399
0.0077523557 0.0059206067 0.04431696 -0.010139007 0.017693035 -0.020058334 -0.06034924 0.009761074
-0.067783535 0.007580446 -0.0036362244 -0.008613759 -0.04461896 0.0611206 -0.013433515 0.017512295
-0.016522354 -0.03063586 0.014738859 -0.03431708 0.0026225806 0.0024355196 -0.017608443 -0.0093607865
0.01895392 0.035322376 -0.013662282 -0.005219519 0.013026113 -0.009579311 -0.0065594083 -0.008897539
0.003822006 0.018941151 0.00036460042 -0.0037940615 -0.038149066 0.03685619 0.0010714625 0.006297974
-0.019663062 0.0021351057 0.0032338707 -0.0059382846 -0.003580914 0.0142169995 -0.10767118 0.036616664
0.008218713 -0.017891672 0.031779565 0.00022317412 -0.013552618 0.054919478 -0.0028751653 -0.058292177
0.013781184 0.00093328714 -0.014804066 -0.0032279892 -0.0022459377 -0.019077323 -0.0046011065 0.029451733

temp_conv.6.bias f4 [2]
00000000: 2f9f 3f3d 3643 673c
0.04678267 0.014115145
